models/iris_model.pth (torch, 3494 bytes, 6 tensors)

fc1.weight f4 [16, 4]
0	0xbe6baa2d	-0.23014136
1	0x3eff9a19	0.49922255
2	0xbf213669	-0.6297365
3	0xbf76f676	-0.9646982
4	0xbf8b7304	-1.0894475
5	0xbf5ab8d0	-0.8543825
6	0x3da82f40	0.08212137
7	0xbe1efca2	-0.1552606
8	0x3e962f89	0.2933314
9	0xbeb4cca8	-0.3531239
10	0x3f9b065e	1.2111318
11	0x3f7945b2	0.9737197
12	0x3e5a49b4	0.21317178
13	0xbeab5e39	-0.33470324
14	0x3e1651b4	0.14679605
15	0x3f65da93	0.8978664
16	0x3dd38547	0.10328155
17	0xbf3734b3	-0.7156479
18	0xbe051fe2	-0.13000444
19	0xbeb6ed68	-0.35728002
20	0x3f2fe9c6	0.68716085
21	0xbf5d898f	-0.8653802
22	0x3f158f3b	0.5842168
23	0x3ea69062	0.3253203
24	0xbf2c09a1	-0.6720219
25	0x3edb2572	0.42802006
26	0xbf814f3a	-1.0102303
27	0xbf0238f9	-0.50868183
28	0xbdb8446a	-0.08997424
29	0xbda68d34	-0.08132401
30	0xbf0bed7d	-0.54659253
31	0xbee41609	-0.4454806
32	0x3efafc40	0.49020576
33	0xbf91a7ac	-1.1379294
34	0x3f4dbed2	0.80369294
35	0x3f7805c9	0.9688383
36	0x3e2c96b6	0.16854367
37	0x3f1c129f	0.60965914
38	0xbee47c3c	-0.44626033
39	0xbf1d5675	-0.6146005
40	0x3f012b55	0.50456744
41	0xbf31a3f9	-0.6939083
42	0xbf1e1a89	-0.6175924
43	0xbf0b7997	-0.54482406
44	0x3bdc4abe	0.006722777
45	0xbc9da5f8	-0.01924418
46	0xbf1155ee	-0.56771743
47	0xbf023862	-0.50867283
48	0xbe426cc8	-0.18986809
49	0xbdcebbae	-0.10094391
50	0xbdef15b4	-0.116740614
51	0xbdd8f190	-0.105929494
52	0x3f73f201	0.95291144
53	0x3e87d119	0.26526716
54	0x3f7d149f	0.9885959
55	0x3e7baf0e	0.24578497
56	0xbccf60e1	-0.02531475
57	0x3f4070bb	0.75172013
58	0xbdf40489	-0.119149275
59	0x3d85ddfd	0.065364815
60	0xbe59a56b	-0.21254508
61	0x3f92d8aa	1.1472371
62	0xbf3459b1	-0.7044936
63	0x3de15e9c	0.110043734

fc1.bias f4 [16]
0	0x3e5216a4	0.20516449
1	0xbedda768	-0.43291783
2	0xbf2691c1	-0.6506615
3	0xbec5a673	-0.38603553
4	0x3e9a11fd	0.3009185
5	0x3f876969	1.0579044
6	0x3c7f7c90	0.015593663
7	0x3f8a21d9	1.079158
8	0x3ea8f105	0.32996383
9	0x3f514b63	0.81755656
10	0x3f4a53d1	0.79034144
11	0x3f8d789d	1.1052433
12	0xbe704dd2	-0.23467186
13	0xbe6395da	-0.22225133
14	0x3e75c4f3	0.24000911
15	0x3f8605b6	1.0470493

fc2.weight f4 [8, 16]
0	0xbf6f8c8a	-0.9357382
1	0xbfa48678	-1.2853537
2	0xbf830fc7	-1.023919
3	0xbf30ca1d	-0.690584
4	0x3f0fa33b	0.56108445
5	0x3f293664	0.6609862
6	0xbf7d86ec	-0.99034
7	0x3f415f4b	0.7553603
8	0x3e80ded3	0.2517
9	0x3f196e65	0.59934074
10	0x3f446cf0	0.76728725
11	0x3f5dd60e	0.86654747
12	0xbc6b4662	-0.014360042
13	0xbe53c9ab	-0.20682399
14	0x3f0626e9	0.5240312
15	0x3f7b4d2c	0.9816463
16	0x3e218134	0.15771943
17	0x3d6b368b	0.057425063
18	0x3c78a148	0.015175171
19	0xbe57cc06	-0.21073923
20	0xbe39042e	-0.18068
21	0x3db56231	0.08856619
22	0xbe59a1fc	-0.21253198
23	0xbe75dcc0	-0.2400999
24	0xbe725cae	-0.23668167
25	0xbe419da0	-0.18907785
26	0xbe67acc6	-0.22624502
27	0x3b95df00	0.004573703
28	0x3e2d8f46	0.16949186
29	0xbe4681b2	-0.19385412
30	0x3d8cc1e4	0.06872919
31	0x3e076eca	0.13225856
32	0x3e9b9032	0.3038345
33	0x3a9a8be0	0.0011790954
34	0xbd1b2bfb	-0.03788374
35	0x3d9cd938	0.07658619
36	0x3d6ef67d	0.05834054
37	0xbe9f45ca	-0.31107932
38	0x3eedc472	0.46438938
39	0x3ee19012	0.4405523
40	0xbf0c3e5d	-0.5478266
41	0x3edffeb9	0.43749025
42	0x3ec3847e	0.3818702
43	0x3c233fc5	0.009963934
44	0xbe0d3b44	-0.1379214
45	0xbeb1be60	-0.34715557
46	0x3d0a03a1	0.033694867
47	0x3ecc615d	0.39918032
48	0x3edd377a	0.43206388
49	0x3fcfc257	1.6231183
50	0x3f873577	1.0563191
51	0x3f50fbb0	0.81634045
52	0xbf19a205	-0.6001285
53	0x3f29e21b	0.66360635
54	0x3e79535d	0.24348207
55	0xbf5e1284	-0.86747
56	0x3f37aac8	0.71744967
57	0xbf651052	-0.8947803
58	0xbf38bfef	-0.7216787
59	0xbf5e9f31	-0.86961657
60	0xbd2a8d52	-0.04163868
61	0x3f5f48ec	0.87220645
62	0xbd934e97	-0.07192724
63	0xbf1d0f25	-0.61351234
64	0xbb806c80	-0.003919184
65	0x3de203a8	0.110358536
66	0x3b911140	0.004427105
67	0xbe6e706a	-0.2328507
68	0xbe03b3ea	-0.128616
69	0xbe06be56	-0.13158545
70	0xbdd6a2bc	-0.10480258
71	0xbd723a68	-0.05913773
72	0xbe68bc98	-0.22728193
73	0xbe74859a	-0.2387909
74	0x3ce4b070	0.027916163
75	0xbd6e8528	-0.058232456
76	0x3e53988e	0.20663664
77	0xbe476bc8	-0.19474709
78	0xbe0313a6	-0.12800464
79	0x3e3a7168	0.18207324
80	0x3ec60f49	0.38683537
81	0xbc2a57b8	-0.01039689
82	0xbe89ffb3	-0.26952896
83	0xbd895e39	-0.06707425
84	0xbd1b4318	-0.037905782
85	0xbeacccae	-0.33749908
86	0x3e9f6e10	0.3113866
87	0x3ef17fda	0.47167856
88	0xbe088cd3	-0.1333497
89	0x3f0835aa	0.53206885
90	0xba6c309a	-0.0009009928
91	0x3e87f035	0.2655045
92	0x3d4c4088	0.04986623
93	0xbe7bafb6	-0.24578747
94	0x3ecc29b4	0.39875567
95	0x3ea38a65	0.31941524
96	0x3f040e61	0.5158444
97	0xbd10a8aa	-0.0353171
98	0x3b39f434	0.0028374316
99	0x3e1ddedb	0.15417044
100	0x3e958b37	0.29207775
101	0xbe36bbda	-0.17845097
102	0x3ecd1cb4	0.4006096
103	0x3ed7500f	0.42053267
104	0xbf10434d	-0.5635269
105	0x3f08d0b3	0.5344345
106	0xbda2341f	-0.079200976
107	0x3ea3d268	0.31996465
108	0x3dcc5444	0.0997701
109	0xbecf2a9b	-0.40462193
110	0x3e26993a	0.16269389
111	0x3e8aea00	0.27131653
112	0x3beab2c0	0.007162422
113	0xbe6b0f5e	-0.22955081
114	0x3d47ef90	0.04881245
115	0xbe057eea	-0.13036695
116	0xbe3e7c5a	-0.18602124
117	0xbe398d54	-0.18120319
118	0x3e530288	0.20606434
119	0xbe096ecc	-0.13421172
120	0xbe479370	-0.19489837
121	0x3a5f4000	0.00085163116
122	0xbd3f2dc8	-0.04667452
123	0xbe4a3644	-0.19747263
124	0x3e5e65d0	0.21718526
125	0xbd756540	-0.059911013
126	0xbd5f4b30	-0.054515064
127	0xbda1aae8	-0.07893926

fc2.bias f4 [8]
0	0x3f44c716	0.7686628
1	0xbe88ea8c	-0.26741445
2	0xbc78477a	-0.01515376
3	0xbe0322ac	-0.12806195
4	0xbe7f3344	-0.249219
5	0xbca8f7fe	-0.020626064
6	0xbdb701fc	-0.08935925
7	0xbe77e93c	-0.24210066

out.weight f4 [3, 8]
0	0xbf1ba9d3	-0.60806006
1	0x3e0ca931	0.13736416
2	0x3f1b7bab	0.6073558
3	0xbf165d65	-0.5873626
4	0xbdaf7c0c	-0.08568582
5	0x3f148ebb	0.5803029
6	0x3f0d00b2	0.55079186
7	0x3d282820	0.04105389
8	0x3f952a56	1.1653545
9	0xbd4413a2	-0.047870286
10	0xbee4cf80	-0.4468956
11	0xbf732b4c	-0.9498794
12	0x3d7163c0	0.05893302
13	0xbe93d473	-0.28873023
14	0xbec9ae74	-0.3939091
15	0x3eb06f71	0.34460023
16	0xbf42d37c	-0.7610395
17	0x3e06379c	0.13107151
18	0xbf0e0686	-0.55478704
19	0x3f4f261d	0.8091753
20	0x3ea1d9e9	0.31611565
21	0xbf1cf654	-0.61313367
22	0xbf0dbf36	-0.5536989
23	0xbd1d1998	-0.038354486

out.bias f4 [3]
0	0xbea88431	-0.32913354
1	0x3f4d2e1d	0.8014849
2	0x3ebf458b	0.37357745
